results/model.pth (torch_old, 88724 bytes, 8 tensors)

conv1.weight f4 [10, 1, 5, 5]
000000 2c 96 e5 bd ad ae 55 be 52 f8 00 be d2 be 3d be
       -0.11210284 -0.20867415 -0.12594727 -0.18529823
000010 e1 8c b4 bd 13 9b 46 be 6d cc cc bd c7 21 0d be
       -0.08815933 -0.19395094 -0.099999286 -0.13782416
000020 95 bb 03 be 44 ed 3b bd c1 fc 20 be 0f e1 28 be
       -0.12864526 -0.04588057 -0.15721418 -0.16492103
000030 11 cc 60 bd d4 8f 27 3d b2 25 53 3e cb 05 60 3e
       -0.054882113 0.04090865 0.20619848 0.2187721
000040 46 9d 31 3e 61 f0 1f 3e f6 8e 28 3e a6 2c 1a 3e
       0.17345151 0.15619041 0.16460785 0.15056095
000050 05 43 30 3e 18 7c d5 3d ee f3 9c 3e a0 ad 16 3e
       0.17213066 0.1042406 0.30654854 0.1471467
000060 1f 13 eb 3d 87 7f 38 3d b7 7e 09 bd 71 17 e2 3d
       0.114782564 0.045043495 -0.03356811 0.11039627
000070 03 5f 4c be 24 f1 0e be c9 2d 89 bb 83 f6 38 be
       -0.19958119 -0.13959175 -0.004186366 -0.18062787
000080 37 da 18 be 93 83 36 3d 1d 43 5b be 4c e3 b7 3d
       -0.14926992 0.044559073 -0.2141232 0.089789
000090 e8 4f 39 bd 77 fb 60 be 6b ba 72 be 9a 24 58 be
       -0.04524222 -0.21970926 -0.23703925 -0.21107712
0000a0 ee a9 39 3c 80 88 14 be 93 1a 38 be 7e 49 0d 3c
       0.011332018 -0.14505196 -0.17978887 0.008623479
0000b0 ec e0 00 be 96 4e 56 bc 3b cc 16 3d 2c fb a8 3d
       -0.12585801 -0.01308026 0.036815863 0.08251032
0000c0 14 36 be 3d 15 59 5b 3e 01 6f 70 be 8a 7a e8 3d
       0.09287658 0.21420701 -0.23479845 0.113514975
0000d0 88 9f e5 3d 58 5a 44 3e c4 08 b9 3d ba b7 8c 3e
       0.11212069 0.19175088 0.09034875 0.27483922
0000e0 bc 4c 81 3d fb 01 71 3e 71 16 ce 3d 9e 52 b5 3e
       0.06313464 0.23535912 0.10062874 0.35414594
0000f0 47 8b 99 3d 53 b9 19 be e4 d6 a9 3d 5f ca a2 3d
       0.07497268 -0.15012102 0.0829294 0.079487555
000100 52 b7 12 3e 22 f3 88 be 16 04 ad bd ff 7c ff bd
       0.14327744 -0.26747996 -0.08448045 -0.12475013
000110 61 39 95 be f0 90 58 bd b4 08 9f bc e3 97 71 be
       -0.2914534 -0.0528726 -0.01941333 -0.23593096
000120 09 d9 7d bd 31 9e 8b bd 4f 77 07 be be 46 71 3e
       -0.06197456 -0.06817282 -0.13229106 0.23562142
000130 38 e2 67 3e d2 1b 6f bd 73 5d 2c 3e 17 6e 71 3e
       0.2264489 -0.05837614 0.16832523 0.23577152
000140 e9 e6 3a 3e 4b 51 11 3e db cd 41 3e 8b 67 8c 3d
       0.18252148 0.14191167 0.18926184 0.06855687
000150 d2 a4 d2 3d ec 6d 61 be d5 79 33 bd 99 83 0a 3e
       0.10285343 -0.22014588 -0.04381736 0.13526763
000160 11 c0 7c bc a6 65 3d be 17 e6 16 be eb dc 2f bd
       -0.015426652 -0.18495807 -0.1473621 -0.042935293
000170 e5 46 a4 be 36 10 fe bd cf 76 8f bb 49 48 88 3d
       -0.32085338 -0.12405436 -0.0043781768 0.06654412
000180 55 11 9a bd 32 76 c0 bc 63 c2 be bd e5 63 50 be
       -0.07522837 -0.02349386 -0.0931442 -0.20350607
000190 30 03 b3 3d f9 9e 68 be 74 71 ba be c0 a4 da bd
       0.08740842 -0.22716893 -0.36414683 -0.10675955
0001a0 40 fe 72 be e8 54 64 3e e7 73 ae 3e 8a f9 df 3d
       -0.23729801 0.22298014 0.340728 0.10936268
0001b0 27 43 9e 3c 6e 66 5d 3d 2a ee dd 3d 5a 21 c2 3e
       0.01931913 0.054052763 0.10836442 0.3791607
0001c0 7b ae b5 3e 96 e8 8c 3e 71 55 04 3e 4a 6b b3 be
       0.3548468 0.275212 0.12923218 -0.35042793
0001d0 4f 2d b1 bd f7 7c 0e 3e 69 66 4c bd 9d 84 eb 3d
       -0.0865122 0.13914858 -0.049902353 0.11499903
0001e0 1c a0 13 be 71 5a 30 be 22 fb 0b be 97 96 d8 ba
       -0.14416546 -0.17222 -0.13670018 -0.0016524371
0001f0 c8 84 25 3d 1a c2 9c 3e 8f 78 b2 3e d2 5e 25 bd
       0.040409833 0.30616838 0.34857604 -0.04037363
000200 bb 4e ce be 29 3c 70 be ff cf 41 3d 9e ba a1 3e
       -0.40294442 -0.2346045 0.0473175 0.3158769
000210 9a e6 a0 3e 66 ac 4c bc 1a 70 2c be 86 54 70 be
       0.31425935 -0.012492275 -0.16839638 -0.23469743
000220 e2 3c a6 3e 59 ac 15 3e db e9 99 3d 0b 18 b0 bc
       0.32468325 0.14616527 0.075153075 -0.02149584
000230 45 47 00 be 18 8f 0b 3d b6 95 ab 3e c2 5e ad 3e
       -0.12527187 0.03407201 0.33512658 0.33861357
000240 b5 b1 f2 3d ae b2 b4 bd 8f 21 e1 bd 73 d8 c6 3d
       0.11850301 -0.08823143 -0.10992729 0.09709253
000250 a5 38 8a bd 9c df a3 3b c7 14 1f be 4c 6c 1a be
       -0.06749085 0.0050010215 -0.1553527 -0.15080374
000260 74 e8 58 3d bf 0a b7 3c 8a da e9 bc 46 d3 6c be
       0.05295606 0.022343991 -0.02854659 -0.2312747
000270 d9 90 9f 3c af fe c2 bd ab 46 0d 3e 09 c3 7c 3e
       0.019478248 -0.09521233 0.13796489 0.24683775
000280 aa 36 1a be 58 fa 11 be 65 be e2 3d 18 39 64 3e
       -0.15059915 -0.14255655 0.11071471 0.22287405
000290 aa 71 01 bc 59 7d 6a be c7 67 90 be 96 59 24 bb
       -0.007900635 -0.22899379 -0.28204176 -0.0025077811
0002a0 25 12 63 3e a8 7b 8e 3e 81 14 05 be 99 90 01 bd
       0.2217489 0.27828717 -0.12996103 -0.03163204
0002b0 69 59 7f 3d df 5b b9 3d 0d c2 89 3e 3b a5 9b 3d
       0.062341128 0.09050726 0.26905861 0.075998746
0002c0 15 34 12 be 9d b2 97 be 64 84 17 3d 22 bd 37 3e
       -0.1427768 -0.2962846 0.036991492 0.17943242
0002d0 68 3b 82 be 6f 79 fd bd bb 7c 9b 3d bf 1c ab 3e
       -0.25435948 -0.12376677 0.0759215 0.3342037
0002e0 d7 b4 7a 3e 61 f7 9d 3d a4 0c a7 3e 0b f2 62 3e
       0.24483047 0.077131994 0.32626832 0.22162645
0002f0 9c f3 09 3e 5d 16 fb bd e8 0b 25 bd f9 1e 7d 3e
       0.13471836 -0.12260125 -0.040294558 0.24718846
000300 2b 44 a2 3c cc 6c 71 be e0 30 65 be 41 0a c8 3c
       0.019807896 -0.23576659 -0.22381926 0.024418952
000310 3a 33 3c be 35 83 17 be 5c 62 c3 bd c7 62 d8 bd
       -0.18378916 -0.14796145 -0.09540245 -0.10565715
000320 70 5c 58 bd da f6 65 be ff 5e a9 3d 3d 4d 86 3e
       -0.05282253 -0.22457448 0.08270072 0.26230803
000330 1b dd 82 bc 4a 8c 88 3b de 16 74 be 01 ba 35 3e
       -0.015974572 0.0041671144 -0.23836848 0.17746736
000340 77 40 3f 3e bb 23 12 be 66 68 23 be 5a ac 93 be
       0.18676935 -0.14271443 -0.15957794 -0.2884243
000350 92 19 69 3e 69 f5 a7 3e 2b 17 f9 bc c4 d1 08 be
       0.2276366 0.3280442 -0.030406555 -0.13361269
000360 0c fe ab 3d a1 d6 a1 3e ef 2e cd bc 0e 0f ed 3c
       0.08398065 0.3160906 -0.025046794 0.028937843
000370 3c 86 ba bd bb 2f 85 3e 19 3c bd 3c 65 cf 70 bc
       -0.091076344 0.26012978 0.023099946 -0.014697884
000380 32 01 53 be 8a 51 a0 3e 29 4b 1d 3e 49 d8 b6 be
       -0.20605925 0.3131221 0.15360703 -0.35711887
000390 32 ae 58 be 92 53 84 3d b1 47 d8 3e 41 3a 3d 3b
       -0.211602 0.06461252 0.42242196 0.0028873833
0003a0 25 69 b4 be bb fb 8d be ae 82 a3 3b 18 e2 8f 3e
       -0.3523647 -0.27731118 0.0049899435 0.28102183
0003b0 21 bd 63 3c 6c 22 28 bd dd 34 6c be f0 37 c3 3d
       0.013900072 -0.041048452 -0.2306704 0.095321536
0003c0 bc ac e1 3d 7d 15 74 3e b5 d9 b5 bd 99 87 05 3e
       0.110192746 0.23836322 -0.08879415 0.13040008
0003d0 86 a0 0d bd d1 2b f3 3d 14 3f c2 bd 56 1a af bd
       -0.034576915 0.11873592 -0.094846874 -0.08549945
0003e0 5f 25 a5 bd 98 22 03 be
       -0.080637686 -0.12806165

conv1.bias f4 [10]
000000 a8 da 7a 3d 8d a1 dd bd 58 0e f4 3c f3 bc 03 bd
       0.061243683 -0.10821829 0.029791996 -0.032162618
000010 58 01 27 3e a5 24 57 bd bb c5 33 3e d2 1f 10 bd
       0.16309106 -0.05252518 0.17555897 -0.035186596
000020 1d 5f 09 bd af 9a 84 3d
       -0.033537973 0.06474816

conv2.weight f4 [20, 10, 5, 5]
000000 18 2e bb bd 1e 5d b0 bd 99 a8 8b bd 45 4e 34 3d
       -0.09139651 -0.08611511 -0.06819267 0.044019956
000010 62 30 9d bb c1 f8 20 be 43 97 12 bd b4 d3 49 bd
       -0.0047970274 -0.15719892 -0.035788786 -0.04927416
000020 c6 9c 0c be e6 88 a6 bd 81 9f b7 bd 39 a9 70 bd
       -0.1373168 -0.0813158 -0.0896597 -0.058755133
000030 a0 5e 8b 3d f1 0f 21 bd d5 f0 55 bd a9 20 2a 3e
       0.06805158 -0.039321844 -0.05223163 0.16614021
000040 09 4a e2 3d 29 7f eb 3d aa f5 b9 3d b8 d5 9c 3d
       0.11049277 0.11498863 0.0908006 0.07657951
000050 c6 fb 94 3d fc ab fb 3d 9b b1 e1 3d ba 09 49 3d
       0.072745845 0.12288663 0.11020204 0.04908154
000060 57 68 52 3d 0e 1e 9f bd de bc af bd 86 f4 de bd
       0.051369037 -0.07769404 -0.085809454 -0.10886483
000070 0c a6 da 3c 80 6d a7 3b cd aa 51 bb 62 b4 42 bd
       0.026690505 0.005109489 -0.0031992674 -0.047535308
000080 53 b2 03 3d 53 b4 8f 3c d2 db 00 bd cd 2d 26 3b
       0.032152485 0.01754204 -0.031459637 0.002535689
000090 1c 54 13 bc 86 79 ab 3c 85 cd 85 3d f6 e5 8a 3d
       -0.008992221 0.02093197 0.0653334 0.06782143
0000a0 7d 99 46 3d c6 ee ec 3d 35 0c ab 3d 5d 07 65 3d
       0.04848622 0.1156898 0.08351938 0.055915225
0000b0 14 87 ad 3d 22 3d 86 bc 67 b9 e7 bc f0 3a 0e bc
       0.0847303 -0.016386572 -0.028286649 -0.008681044
0000c0 92 4d 12 3d d5 64 44 3d 4c 08 b9 bc 2c eb 10 3e
       0.035718508 0.047947723 -0.022586964 0.14152211
0000d0 7e 4f c6 3d 79 dd c3 3c 54 86 d4 3d 07 7f 3d 3d
       0.09683131 0.023909317 0.103771836 0.04626372
0000e0 c1 e0 45 3d a0 6e fe 3d 04 18 0b 3e 91 89 37 3e
       0.048310045 0.12423444 0.1358338 0.17923571
0000f0 90 fe ba 3d 48 eb 95 3d cb f4 06 3c 3b b4 af 3d
       0.09130585 0.07320267 0.008237074 0.08579298
000100 1f f2 15 3e d7 4c 03 be 01 8e 2e bd b6 f8 02 bd
       0.14643143 -0.12822281 -0.042615894 -0.03197547
000110 5c 30 23 bd 6f 6d 33 bd 41 10 79 bd 6a d6 b4 3d
       -0.03984104 -0.043805536 -0.060806517 0.08829959
000120 06 d1 00 3c 3b d3 92 3c 1b d0 05 be ad d2 5e bd
       0.007862335 0.017922988 -0.13067667 -0.054400135
000130 52 d0 49 bc 83 1e 3b 3d d1 87 97 3d 4e a6 30 bd
       -0.012317734 0.045683395 0.07398952 -0.04312735
000140 bc 93 ed 39 3c 16 c4 bb 75 04 0c 3e f3 91 33 3e
       0.00045314233 -0.005984096 0.13673575 0.17536144
000150 12 75 0e 3e b6 73 0a 3e 03 2f 03 3e c3 57 6f 3d
       0.13911846 0.13520703 0.12810902 0.058433305
000160 ca 66 fa 3d f3 67 ea 3d 7e a2 b5 bc a5 74 97 3c
       0.12226637 0.11445608 -0.022172209 0.018488238
000170 cf fa a1 3d 17 9d 85 3d f8 a0 bc 3c 0e 7d eb bd
       0.07909166 0.06524103 0.023025975 -0.11498462
000180 a5 04 49 3d c0 ee f4 3d 25 27 d8 bb 6f 50 c7 3c
       0.049076695 0.119596004 -0.0065964633 0.024330346
000190 01 56 cf 3c 19 c9 e4 3d ad fa 11 3e 35 11 17 3e
       0.025309565 0.11171169 0.14255781 0.14752658
0001a0 e1 42 2b bb 78 a2 1c 3e df 7c fb 3d e9 78 d4 3d
       -0.0026132392 0.15296352 0.12279677 0.10374624
0001b0 61 75 19 3e 82 ea fa 3d 44 c5 7a 3d b5 d2 d6 3d
       0.14986183 0.1225176 0.061223283 0.10489408
0001c0 3f be 6d 3d cb c6 34 3d 3f ac 81 3c 31 45 37 be
       0.05804276 0.044134896 0.015829204 -0.17897488
0001d0 d2 ac 29 bd dc 75 27 3c 31 79 4b 3c 3a 01 fe bc
       -0.04142458 0.010220971 0.012419031 -0.031006444
0001e0 47 3b fa bc 32 0d 0b 3d 6e c6 82 3c fb ea 86 3d
       -0.030545844 0.03394813 0.01596376 0.06587788
0001f0 c6 81 95 3c 9c d5 70 3d cb 88 c0 3d 56 be 32 3e
       0.018250357 0.058797464 0.09401091 0.1745542
000200 62 09 47 3d f4 68 ed 3c a7 1d ab 3d ec e2 02 3e
       0.048592933 0.02898071 0.08355265 0.12781876
000210 3c 01 4e 3d f9 f3 80 3d d8 1c 48 ba ad a6 f8 3c
       0.050294146 0.06296534 -0.00076336926 0.030352915
000220 f9 34 e7 3c 69 24 f4 bc 72 37 c4 3a f5 7b fd bd
       0.028223502 -0.029802518 0.0014970137 -0.123771586
000230 59 fa 75 be 9e f0 47 be b1 04 5f bd 76 f8 3b be
       -0.24021281 -0.19525382 -0.054447833 -0.18356499
000240 40 f5 55 be c3 0c b4 bd 39 04 05 be 23 3a eb bc
       -0.20894337 -0.087914966 -0.12989892 -0.028714245
000250 e5 3c 5d bb cb e1 2d bd 4a e9 2f bc e5 a5 2a 3d
       -0.003375822 -0.04245166 -0.010736773 0.041662116
000260 ec cb 5d 3c e9 87 c3 bc 77 11 d2 3c 74 f0 1a be
       0.013537388 -0.023868518 0.025643094 -0.15130788
000270 a5 9c fe bd bb 50 f6 bc ef 84 88 3c e1 b2 8d bd
       -0.12432221 -0.030067792 0.01666495 -0.06918884
000280 75 67 86 bd e2 27 97 bd 41 2f 0d be 76 63 04 be
       -0.065627016 -0.07380654 -0.13787557 -0.12928566
000290 94 12 07 be 90 f2 83 bd 07 bf 10 bd df 46 1b bd
       -0.1319068 -0.064427495 -0.035338428 -0.037909385
0002a0 b7 ca ba bd 66 e0 b2 bd 3a 86 91 3d 81 f9 1e 3d
       -0.09120696 -0.08734207 0.0710568 0.038812164
0002b0 a2 c5 85 bc 56 32 e1 bc c6 07 60 bc d7 c0 c7 bd
       -0.01632959 -0.027489822 -0.013673728 -0.09753578
0002c0 dc e6 4f bd 27 97 43 bd 9e ed b2 3c 22 9e 8a 3d
       -0.050757274 -0.047751572 0.02184182 0.06768443
0002d0 4c f4 35 be 23 5c 6e bd 01 5c 3c bc 40 4c aa 3d
       -0.17768973 -0.058193337 -0.011496545 0.08315325
0002e0 5a 27 e8 3d 08 0c 03 be 17 f6 a2 bd 4a fd f8 bd
       0.11335631 -0.12797558 -0.07957094 -0.12157686
0002f0 81 5c 84 bc 97 d9 b3 3d 15 f8 81 bc f4 b2 73 bd
       -0.01615739 0.08781736 -0.015865365 -0.059496835
000300 7c bd 6b 3c 64 32 d1 bd 86 1c bf bd 65 9a ab 3d
       0.014388438 -0.102146894 -0.09331612 0.08379058
000310 fd 84 62 3a f4 da 1f bc dd 43 25 be 25 0a 40 be
       0.00086410326 -0.009756792 -0.16139169 -0.1875387
000320 06 ee 91 bc 63 54 be bd 76 22 3f bd 4d 5e 1f bc
       -0.017813694 -0.09293439 -0.046663724 -0.009727073
000330 52 cc 07 bd 8b bc e7 bd b2 16 12 be 44 2a 56 bd
       -0.03315384 -0.113152586 -0.1426647 -0.0522864
000340 61 33 84 bd c1 9f c7 bd 50 46 bc bd 59 30 cf bd
       -0.06455112 -0.097472675 -0.091930985 -0.101166435
000350 39 13 af bd 9c 14 b9 bd 90 59 e7 bd 5e 2a 83 bd
       -0.08548588 -0.09037134 -0.112963796 -0.06404565
000360 fe 7a 18 bd 4d 66 60 bc d5 18 01 be f3 cb 4f be
       -0.03722667 -0.013696265 -0.12607129 -0.20292644
000370 54 dd 89 ba 9d 85 60 bc 77 36 fe bc c4 b0 b5 bd
       -0.0010518231 -0.013703731 -0.03103183 -0.08871606
000380 07 fd f8 bd fa e8 b3 3d 76 15 69 3d 75 1c 1c 3d
       -0.12157636 0.08784671 0.056905232 0.038113076
000390 03 72 6e 3d 61 e2 4d 3d 52 d0 53 3c e0 a3 66 3c
       0.0582142 0.05026472 0.012928085 0.014077157
0003a0 c2 00 97 bd d0 e0 fe 3a 29 44 25 3d db 1f e1 bc
       -0.073731914 0.0019445661 0.040348206 -0.02748101
0003b0 56 aa 3b be b2 2b 78 bd 87 a3 f6 bd 78 b8 6a bc
       -0.18326697 -0.060588546 -0.12042909 -0.014326207
0003c0 6d b1 90 bc c5 7b 18 be fe 97 0c be 0b 3a 57 bd
       -0.017662728 -0.14890964 -0.13729855 -0.05254559
0003d0 1c 5d b6 bd c0 27 de 3c 9c b4 d3 bd 6a 1d 8f bd
       -0.08904478 0.027118564 -0.10337183 -0.06988032
0003e0 1b ba e1 bc 5f 90 17 bd f1 b5 a5 3d 1c 89 a5 3d
       -0.027554562 -0.037002917 0.08091343 0.08082792
0003f0 8b d3 10 3d 15 c8 5f bd b3 d3 81 3b 42 d8 9e 3c
       0.035357993 -0.054634172 0.003962004 0.01939023

conv2.bias f4 [20]
000000 b2 80 16 3d a6 8b 78 bd d6 0c 59 bc a1 45 88 bc
       0.036743827 -0.060680054 -0.013247689 -0.016634764
000010 e5 4e 05 3b e3 10 7e 3d 39 38 a3 bd 05 0d 15 bd
       0.0020341214 0.062027823 -0.07969708 -0.03638937
000020 95 49 9d 3d 30 b6 81 bc b1 b5 1b 3c 82 af 24 3d
       0.0768005 -0.015833944 0.009503768 0.04020644
000030 a2 c3 53 3d 4b 52 3a 3d 43 57 a3 3c 75 e6 98 3a
       0.051700242 0.045488637 0.01993907 0.0011665361
000040 46 60 f9 bb c5 ba 62 bd 4d 68 cd bc c7 f5 78 3c
       -0.0076103536 -0.0553539 -0.025074149 0.015195317

fc1.weight f4 [50, 320]
000000 e2 73 21 3d fc 0c 83 bd b4 47 2e bd 9f 1e e1 bb
       0.039417155 -0.06398961 -0.04254885 -0.0068701054
000010 f8 3f d6 3c b4 fb 6f bd c1 bd a1 3c 44 b3 0e 3c
       0.02615355 -0.058589652 0.019743802 0.008709732
000020 a3 b1 2c bd c6 bd d1 3c 9d 9d 19 3c 7c 6a 7f bc
       -0.042161595 0.025603186 0.009375957 -0.015589353
000030 99 39 14 bd 98 5a ce 3c 42 67 1f 3c 98 82 86 3b
       -0.036187742 0.025189683 0.009729208 0.0041049235
000040 91 c0 41 bd 06 d0 79 bd 1a 60 7c bd d7 a8 48 bd
       -0.047302786 -0.060989402 -0.061615087 -0.048989143
000050 ce df eb bc b4 8e 89 bb 13 db 60 bd 61 4a ee 3c
       -0.028793242 -0.0041979197 -0.054896425 0.029088201
000060 ad aa 81 bd c4 22 7e 3c 9f 42 77 bc da 73 02 bd
       -0.06331382 0.015511218 -0.015091567 -0.031848766
000070 17 81 bd bc 54 8b 06 bd 84 33 a0 3c 78 03 61 bd
       -0.023132844 -0.032847717 0.019555815 -0.05493495
000080 59 1e 14 3d 9f b9 47 bd cb 77 4f bc 6d 55 63 bb
       0.036161754 -0.048761006 -0.012662838 -0.003468837
000090 a2 10 c3 bc 4b e8 b4 3c e0 7e 19 bd d6 f3 8d 3c
       -0.023811642 0.022083422 -0.037474513 0.017328184
0000a0 4c bf 03 3d 0b a2 8f bd b6 a4 e8 bb 68 d5 02 bd
       0.032164857 -0.07013329 -0.007099713 -0.0319418
0000b0 8e 4c 15 3c 22 1d 60 bd e3 b6 23 bd 7a 21 11 bd
       0.00911249 -0.054715283 -0.039969336 -0.035432316
0000c0 74 20 a6 3b bb d2 f7 3c a4 cd 1d 3d 7d 49 4d bc
       0.0050697867 0.030251851 0.038526192 -0.012529728
0000d0 f2 ad bb bc d2 0a 92 bb 36 50 e0 3c 40 e4 6e 3c
       -0.022910092 -0.0044568563 0.027381998 0.014580786
0000e0 b1 43 47 bd b2 59 a2 bd 35 ed a5 3c c2 6e 7d 3c
       -0.04864854 -0.07927264 0.02025471 0.015468301
0000f0 0f bf 9e 3b 0e c8 7a 3a 8f 18 5c bd af 64 d8 3c
       0.0048445533 0.00095665536 -0.05373436 0.026415197
000100 cc 27 72 bc 95 0a e9 35 a5 50 6b bd db 04 f9 bc
       -0.014779996 1.7362933e-06 -0.057449955 -0.030397823
000110 40 9b 20 bc af 57 3e bd 6c ea 1d bd 5b c4 73 3b
       -0.0098026395 -0.04647034 -0.03855364 0.0037195894
000120 9d 40 c7 bb 66 44 d0 3c 0e 36 30 3c e1 a5 a9 3c
       -0.0060807006 0.02542324 0.010755075 0.02070898
000130 ac c0 24 3d 8e 54 28 bd bd 53 82 bc 63 d1 d7 bc
       0.04022281 -0.041096263 -0.01590907 -0.02634496
000140 fb 5a 6f bb cc 5d 5f bd 9d 1b a7 bc 16 1b 15 3d
       -0.0036522734 -0.05453281 -0.02039891 0.036402784
000150 8d 10 80 3b 64 db df bc c2 1d 15 bd 7e 2c 47 3c
       0.003908223 -0.027326293 -0.036405332 0.012156604
000160 4e a2 b2 3c 6a 88 f2 3c 7a 08 27 3d 2a d7 88 bd
       0.021805909 0.029606063 0.04077957 -0.06681664
000170 67 56 4b bd f9 06 23 bc 95 8b 8a bd 9b cd 1c bd
       -0.049642947 -0.009950393 -0.067649044 -0.03828202
000180 4e 4b ad 3b 4f 71 5e bd 97 60 c9 bc a5 2b c2 ba
       0.005288518 -0.05430728 -0.02458219 -0.0014814032
000190 3d f8 0c bd a3 cd e0 bc 28 94 c0 3c 83 94 dc 3a
       -0.034416426 -0.027441805 0.023508146 0.0016828928
0001a0 c9 f6 18 3d 62 90 0f bc 84 2d 9f 3c 4c c9 38 3d
       0.037344728 -0.008762451 0.019430883 0.045113847
0001b0 e6 82 d6 3b 41 7c 46 3d 0c 47 24 3d cf cd 43 bc
       0.006546366 0.04845834 0.040106818 -0.011950924
0001c0 a7 6a b0 bb f6 d7 15 3b bf c0 24 bc b8 99 6d bc
       -0.0053838077 0.0022864318 -0.01005572 -0.014501981
0001d0 f1 4f 4c bd fb 7d fb bc 80 6b a5 ba 95 e0 d2 3c
       -0.049880926 -0.03069972 -0.0012620538 0.025741855
0001e0 cb 0a 38 bd d8 f6 5e bb 4b 53 3f bc cd 68 e7 3c
       -0.044932168 -0.0034021642 -0.011677573 0.028248215
0001f0 03 bb 87 bc cc 80 de bb bd 71 9c 3c 3d 5c 49 bd
       -0.016568666 -0.006790256 0.019097203 -0.04916023
000200 a9 5e f2 3c 82 6d 7f 3c 49 2f c7 bc 7d f8 e7 bc
       0.029586153 0.015590074 -0.02431454 -0.02831673
000210 54 24 d7 bc c8 02 76 bb 3a 3c fd bc 60 62 5a bd
       -0.02626244 -0.003753828 -0.030912507 -0.053316474
000220 c3 b6 bf bc 3b a7 21 bd 7b e6 1e bc 72 95 21 3c
       -0.023402577 -0.039466124 -0.0096985055 0.009862291
000230 ed f1 81 bd f8 7b cd bc 19 86 92 3c e5 e1 e7 3c
       -0.06344972 -0.025083527 0.017886208 0.028305957
000240 06 31 92 bd 5f d1 82 bd 9d 49 2b bd 9d 6f 68 bd
       -0.07138257 -0.063875906 -0.04181825 -0.056747068
000250 09 af 38 3c e0 36 fe bc c2 12 48 bc 49 73 21 bd
       0.0112722 -0.031032026 -0.012211503 -0.039416585
000260 ac ef 98 bd 89 0d b7 bb 88 0e 37 3c 18 2b 7c 3c
       -0.07467589 -0.0055863303 0.011172898 0.015391134
000270 4e 84 1e 3c 6d 78 42 3c a0 dc 66 bd 7f 52 f2 3c
       0.009675099 0.011869532 -0.05636275 0.029580353
000280 10 63 1c bd 80 ff 85 b8 bd fa 4b bd a1 60 29 bd
       -0.03818041 -6.389525e-05 -0.04979967 -0.041351918
000290 c8 c8 11 3d 83 1f db 38 14 69 b2 3c e3 3c 9e bc
       0.03559187 0.00010448603 0.02177862 -0.019316142
0002a0 c5 84 58 bd 56 a0 e9 bc e7 0f 03 bd 2e 9e 01 bd
       -0.052860994 -0.028518837 -0.031997588 -0.031644993
0002b0 95 85 23 bd 7a 54 de 3c 09 63 4b bd e7 fb 9e bd
       -0.039922316 0.027139891 -0.049654994 -0.0776289
0002c0 34 50 65 3c a6 cf d8 3c a0 92 82 bd 8c 51 57 3d
       0.013996173 0.026466202 -0.06375623 0.052568004
0002d0 83 e2 72 bd dc 5f 1e bd 4d 7a 3a bb ba 16 ce 3a
       -0.05929805 -0.038665637 -0.0028454245 0.0015723326
0002e0 50 f5 11 bd 0a c2 6d bd cc f8 84 bd 0a 35 ad bc
       -0.03563434 -0.05804638 -0.06492767 -0.021143455
0002f0 a8 42 16 bd 9f 8f 2c 3d 60 20 eb bc 3c ed 22 bd
       -0.036684662 0.042129155 -0.028701961 -0.039777026
000300 ec 13 16 bc 96 82 63 bd 73 1f 4a 3d 03 47 c6 bc
       -0.009160023 -0.05554446 0.0493464 -0.024203783
000310 6f f6 aa 3c 1d 92 99 bb df 2c 95 bd ea 8a 47 bd
       0.020869462 -0.0046866075 -0.07283949 -0.048716463
000320 fa 37 45 bd af be 45 bd fa e7 4c bd 67 06 38 bd
       -0.048149087 -0.048277553 -0.050025918 -0.04492798
000330 ae 88 91 bc 8b 76 dd 3c f2 b6 9f 3c 0a 67 93 3c
       -0.01776537 0.027034065 0.019496415 0.017993469
000340 df 45 19 bd 6c 7b 63 bd a7 cb 73 bd 91 d7 22 3d
       -0.03742015 -0.055537626 -0.05952039 0.03975636
000350 a9 8b 10 bd b4 36 8c bc ab e8 d4 3c cf 9f 40 bd
       -0.03528944 -0.017115928 0.025989851 -0.047027405
000360 0a 82 8b 3c d0 b9 80 bc 24 91 01 bd a2 52 8b bb
       0.01702978 -0.015713602 -0.031632558 -0.004251794
000370 00 1d 9f bd 12 26 87 3c f1 7a ac 3b ea c9 94 3b
       -0.07769203 0.016497646 0.005263679 0.0045406716
000380 59 05 2a bd 4c 43 9d bc 96 37 e6 bc 71 27 b8 bc
       -0.041509006 -0.019197129 -0.028102677 -0.022479745
000390 a2 60 03 3b ca 04 ae 3c 5f ce cc 3c 82 ad 86 3c
       0.0020046611 0.021242518 0.02500075 0.016440157
0003a0 8b 1b c7 bc 45 d9 3c bc 83 78 4f 3c 2d 1c e0 bb
       -0.024305126 -0.0115264105 0.01266301 -0.0068392963
0003b0 b0 e3 12 3d 3f ab 1b 3d 59 0f 80 bd cb 46 6d 37
       0.03586167 0.03800511 -0.06252927 1.4142784e-05
0003c0 f5 a1 b2 ba 61 06 39 bd f7 3e 01 3d 5e 0b 97 bb
       -0.0013628589 -0.0451721 0.03155419 -0.0046095094
0003d0 a2 63 81 bd b3 1d 82 3c cc f6 49 bd 15 04 de bc
       -0.063178316 0.015883302 -0.04930763 -0.027101556
0003e0 16 93 1b bc 82 cc 1e 3b f6 c5 f2 bc 3a de 2a bd
       -0.009495517 0.0024230783 -0.02963541 -0.041715838
0003f0 89 2e 72 b7 5e 94 b2 bc 5c 57 ba bc a2 1d 97 bd
       -1.4435159e-05 -0.021799263 -0.022746734 -0.07378699

fc1.bias f4 [50]
000000 c0 05 72 bd 02 25 ec 3b a9 3c ad 3c 43 23 6e 3c
       -0.059087515 0.00720656 0.02114709 0.014534774
000010 26 22 2d bd af eb 87 3d 83 d1 ed bc 53 ce cc bc
       -0.042268895 0.0663675 -0.029030567 -0.025000727
000020 41 c9 da bc 78 ef 3f 3d 8f 54 1d 3d 40 d8 ee bb
       -0.026707293 0.046859235 0.03841072 -0.0072889626
000030 d7 1e d4 bc a8 49 52 bc 9b 00 e8 bc 3b 43 d4 3c
       -0.025893612 -0.012834944 -0.028320601 0.025910964
000040 6b 4a 95 bd f4 33 2c bd 3e ee 39 bd 67 97 a4 3c
       -0.07289585 -0.042041734 -0.04539322 0.020091726
000050 4a a6 f2 bc 0e b9 b9 bb 70 4c 49 3d c6 6b 40 bc
       -0.029620308 -0.005667812 0.049145162 -0.011744445
000060 2e 90 a2 3c c6 0b 61 3d c2 8a d6 3b 19 90 1f 3c
       0.01984414 0.05494287 0.006547303 0.009738945
000070 b5 0b 46 bd 14 62 22 3d 56 75 2c 3c bc 56 c7 3c
       -0.04835101 0.039644316 0.010526022 0.02433335
000080 c4 8a da 3c 0a 9e 39 bd 4f fb 91 bb 2b df d7 bc
       0.026677497 -0.045316733 -0.004455007 -0.026351532
000090 97 df f6 3c 58 64 ca bc 00 54 60 3b ba d9 20 ba
       0.030135913 -0.02470605 0.0034229755 -0.00061359594
0000a0 21 93 95 bc 3a 5e 50 bc 1e fc 5d 3c a7 d3 0b 3d
       -0.018258633 -0.012717778 0.013548879 0.034137394
0000b0 dc c9 25 3d ea 8d 9a bb 77 c8 27 3d 7e 1a 91 3c
       0.04047571 -0.0047166245 0.040962663 0.017712828
0000c0 54 44 f7 bc fe b3 d3 bb
       -0.030183949 -0.0064606657

fc2.weight f4 [10, 50]
000000 a6 c6 7f 3d 35 85 cb 3d 49 18 0d 3e 24 32 23 be
       0.062445305 0.099375166 0.13778795 -0.15937096
000010 4e 93 23 3e fe c1 78 bd 28 2f 2a 3d 55 6e 05 be
       0.15974161 -0.06073188 0.041548878 -0.1303037
000020 90 2b f4 3c 70 36 00 3e 9f 73 2e be db 71 16 3e
       0.029805928 0.12520766 -0.17036293 0.1469187
000030 67 9a 30 bd de ea 0f be 52 63 4a 3d b4 60 f7 3c
       -0.043116 -0.14054438 0.049411125 0.030197479
000040 45 0b 0f bc 4f c9 b8 3d 40 06 f9 bd e5 f6 08 3e
       -0.008730714 0.090227716 -0.12159395 0.13375433
000050 eb 7f 22 be 98 3d 16 bd 93 18 21 bd ba c5 02 bd
       -0.1586911 -0.036679834 -0.039330076 -0.031926848
000060 8b 6d fc 3c 15 c7 d8 bd d1 ca 84 3d 00 45 4e bd
       0.030813953 -0.10584847 0.06483997 -0.050358772
000070 62 b5 97 bc 4c ea ca bc 12 6e 07 3e e4 91 fa bc
       -0.018519107 -0.024769925 0.13225582 -0.030587144
000080 fd 7b 13 be db 8f e4 bd 5b 2f fa 3c e7 0c 25 be
       -0.14402767 -0.11160251 0.030540159 -0.16118203
000090 2b 46 ab 3d 6e 13 d9 3c 81 76 7b 3e c0 92 97 bd
       0.08362993 0.026498523 0.24556924 -0.07401037
0000a0 91 62 15 3e 41 20 ca 3d bf c4 34 be 8c 52 aa bc
       0.14588381 0.09869433 -0.17653178 -0.020791315
0000b0 f3 b0 7c 3d fb 7e e8 bd de 68 ca 3d 70 a4 44 be
       0.06169219 -0.113523446 0.09883283 -0.19203353
0000c0 44 ae e0 3d f9 92 c8 bc 8b 55 8a 3b 48 ac 8c bc
       0.109707385 -0.024484145 0.0042216233 -0.017171994
0000d0 c6 63 d3 3c 7b 33 68 3e 10 50 d5 3d c0 e1 74 3c
       0.025804412 0.22675888 0.10415661 0.014946401
0000e0 90 34 82 3d 9c b0 53 3d 28 8b b5 3c fd 3e 1e be
       0.06357682 0.0516821 0.022161081 -0.15453716
0000f0 a0 63 da 3d be 93 70 bc 2c 51 95 bd 2d 51 09 be
       0.10663533 -0.014683662 -0.07290873 -0.13409872
000100 5d 86 55 be 3b 4c 5f bd 4d 06 17 bd 1f 27 5a be
       -0.20852037 -0.05451606 -0.036871243 -0.21303986
000110 31 af 4a be 40 63 d4 3c 88 04 3a 3e fd a1 c1 3d
       -0.19793393 0.025926232 0.18165791 0.09454725
000120 91 45 3e be 88 b7 cb bd ce 0f 13 be 5d 32 e8 3d
       -0.18581225 -0.09947115 -0.14361498 0.11337731
000130 a1 b5 82 3d ad 05 24 3e a3 2f 05 bd 24 02 0e 3e
       0.06382299 0.1601779 -0.032516133 0.13868004
000140 d0 44 ba bd 80 45 ef 3c 97 0c 74 be ee e6 2e bd
       -0.09095156 0.029207945 -0.23832928 -0.0427007
000150 e1 92 78 3d 59 2c 01 be f9 78 ef bd 16 e9 d0 3c
       0.06068695 -0.12614574 -0.116929956 0.025501769
000160 f4 91 49 3e b1 6f 0e 3e df 27 1b be 82 c4 1c 3d
       0.19684583 0.13909794 -0.15151928 0.038273342
000170 0c 7b 66 3d 39 7d 3d be d4 5b d9 3d 11 05 ea 3d
       0.05626969 -0.185048 0.10613218 0.114267476
000180 c8 b8 22 3e b8 14 d1 3d 43 a5 ca 3d 95 28 46 3d
       0.15890801 0.1020903 0.098948024 0.048378546
000190 61 2a 81 3d 12 39 14 be 01 04 c9 3d 86 f4 84 be
       0.06306911 -0.14474896 0.09815217 -0.25967807
0001a0 e3 38 2c 3e 87 8e a9 bd 98 8d 0b 3c 84 ee 15 bd
       0.16818576 -0.08279138 0.008517645 -0.03660442
0001b0 cb 77 ce bd 5d 28 20 be 89 a8 b3 3d c6 20 8c be
       -0.100814424 -0.15640397 0.0877238 -0.27368754
0001c0 c6 60 04 3e b9 15 0d bd fa cd 21 be 81 5a 12 3e
       0.12927541 -0.034444544 -0.1580123 0.14292337
0001d0 a1 a2 f3 3d 34 73 78 3c 5d 02 64 bb 71 1a 18 be
       0.118962534 0.015164185 -0.0034791448 -0.14853837
0001e0 12 cb 9e 3d 66 11 d0 bd b2 5e f3 bd 67 4c da 3c
       0.07753576 -0.101595685 -0.11883296 0.02664776
0001f0 e5 52 fd bc a9 d6 10 be 49 45 2b 3d 00 f8 33 3e
       -0.030923316 -0.14144386 0.041814122 0.17575073
000200 06 04 db 3d 12 3c 52 39 8e cc 07 be 8c cb 85 3d
       0.10694127 0.00020049539 -0.13261625 0.06532964
000210 fe 3e ff bd fe 66 16 3e 2f 57 07 be 47 0a 8f 3e
       -0.12463187 0.14687726 -0.13216852 0.27937528
000220 21 9e 0b 3e e8 f4 ac 3d 16 74 9e 3d e0 3d b9 bd
       0.1363454 0.0844515 0.077369854 -0.09045005
000230 a7 15 6e bd b1 1c ad 3d 87 04 43 be 73 eb a2 3d
       -0.058126118 0.08452738 -0.19044696 0.079550646
000240 dc e0 1c be ae fe f5 bc 32 8e f6 3d ff 44 e5 bd
       -0.15320152 -0.030028667 0.1203884 -0.111948006
000250 b4 89 f9 3d a7 45 40 3e 56 fb 77 bd f9 ef 9c 3d
       0.12184468 0.1877657 -0.060542427 0.07662959
000260 e2 e2 ad 3d 8e 99 55 be 32 07 e3 3d 9b 4b 3a 3e
       0.0849054 -0.20859358 0.11085357 0.18192904
000270 1a 3a e9 bd a5 3a 1f 3e b1 89 52 bc 03 d1 1d be
       -0.11388035 0.15549715 -0.012850211 -0.15411763
000280 10 67 a5 3d 28 2b db 3d c1 27 66 be 4c 88 d0 3d
       0.08076298 0.10701591 -0.22476102 0.101822466
000290 75 99 e9 3d e8 13 23 be 94 41 13 bd bf 01 fc bd
       0.11406223 -0.15925562 -0.035951212 -0.123050205
0002a0 a4 fe 03 bc 4a c7 30 be ad 0d 81 3c ff 8c ad 3d
       -0.0080563165 -0.17263523 0.015753591 0.084741585
0002b0 f9 9f c5 3c 2b bf 03 3c 03 8a 36 be ed 26 bd bd
       0.024124132 0.008041183 -0.17826085 -0.0923594
0002c0 ca 3f 29 be 82 6e 7c bd 9f e4 f2 3d 20 25 a6 bd
       -0.1652824 -0.061628826 0.11860012 -0.0811255
0002d0 e3 4a 15 be 27 f1 80 bc e5 a7 9f bd 57 29 aa 3c
       -0.14579348 -0.01573999 -0.07795695 0.020771665
0002e0 56 77 d2 3d 14 db 7f bd 73 e0 0c 3e 69 ab 93 bd
       0.10276668 -0.06246479 0.13757496 -0.07210428
0002f0 78 6b 7f bd a0 54 a1 3c ce 0b bd 3d 1d e7 8a bd
       -0.06235835 0.019693673 0.09230767 -0.067823626
000300 df fc 0f 3e 39 c9 0d 3d 21 25 c7 bd 05 b6 3d 3e
       0.14061306 0.03461573 -0.09723879 0.18526466
000310 29 ff 8e bd 37 bd fa bd 69 14 05 be e4 25 ee 3d
       -0.06982262 -0.12243121 -0.12996067 0.11628321
000320 9a be 0d bd 5f c2 92 be 42 8a 9f 3d 86 9c b1 bb
       -0.0346056 -0.28663918 0.077900425 -0.0054202704
000330 53 2e 89 bd 07 43 4b be f8 61 3a bd e4 79 09 3e
       -0.06698289 -0.19849788 -0.045503587 0.13425404
000340 30 1d 38 be 3a f0 29 3d e5 a1 06 bd 64 12 59 3b
       -0.17979884 0.041488864 -0.03286924 0.0033122534
000350 24 2b 1c 3e 1d 0e a1 bd 79 d1 11 3d 88 e2 bd bd
       0.15250832 -0.0786402 0.03560016 -0.09271723
000360 ed 2b 0b 3e fc d3 cb 3d e7 d2 69 3b 38 ce 23 3e
       0.13590975 0.09952542 0.0035678686 0.15996635
000370 e0 e4 b6 bd f2 07 8c 3c 3f 99 05 3e be b0 d6 bd
       -0.08930373 0.017093632 0.1304674 -0.1048293
000380 63 bc 12 3e a9 76 f1 3d 9f 0a f7 bc fa 32 88 3d
       0.14329676 0.11790211 -0.030156432 0.06650348
000390 8b 79 5f bd ec bc fb 3d 8c 08 89 3d 23 d4 de bd
       -0.05455927 0.12291893 0.06691083 -0.108803056
0003a0 1b 5d 20 bd d4 21 ac 3d d1 b2 5b bd f6 25 dd bd
       -0.039151292 0.0840489 -0.05363733 -0.10798256
0003b0 7c aa 8a 3d dd 7b 1b bc ab 39 f9 3b ce 32 a6 bd
       0.067707986 -0.0094899805 0.0076057515 -0.08115159
0003c0 3b 68 96 be 14 0d 14 be d7 f1 97 3d b1 5f 0d be
       -0.29376397 -0.14458114 0.07419174 -0.13806035
0003d0 2a 37 db bc 84 7a e3 3d bd 53 37 be da de ac 3c
       -0.026759703 0.111073524 -0.17903037 0.021102358
0003e0 fa 1d 2d 3e c7 0e eb bb e0 0d 24 3d 08 86 27 3d
       0.16905966 -0.0071733925 0.040052295 0.040899307
0003f0 c7 b7 d1 3d 22 1b 4a be 4d 4e b5 3c f3 93 9f bd
       0.10240131 -0.19736913 0.022132063 -0.07791891

fc2.bias f4 [10]
000000 a2 f4 9b 3d 4c b5 f0 bd 8e 74 7d 3c cf d0 6b bd
       0.076150194 -0.1175333 0.015469683 -0.057572182
000010 aa ed 21 bc 48 d7 a8 bd bd 02 3d bc ea cd fa bd
       -0.009883324 -0.08244187 -0.011536297 -0.12246306
000020 54 e1 3c 3e 74 d1 ca 3c
       0.18445331 0.024758078
